…
bels . note that our neural network architecture is now a class. To start using the model, we need to instantiate it into an object, . model = LeNet5(n_channels=1) . To further understand the architecture of LeNet5, we use torchinfo, which further shows the number of parameters in the network. . summary(model, input_size=(100, 1, 32, 32)) . ========================================================================================== Layer (type:depth-idx) Output Shape Param # ========================================================================================== LeNet5 -- -- ├─Sequential: 1-1 [100, 16, 5, 5] -- │ └─Conv2d: 2-1 [100, 6, 28, 28] 156 │ └─ReLU: 2-2 [100, 6, 28, 28] -- │ └─MaxPool2d: 2-3 [100, 6, 14, 14] -- │ └─Conv2d: 2-4 [100, 16, 10, 10] 2,416 │ └─ReLU: 2-5 [100, 16, 10, 10] -- │ └─MaxPool2d: 2-6 [100, 16, 5, 5] -- ├─Sequential: 1 -- -- │ └─Linear: 2-7 [100, 120] 48,120 │ └─ReLU: 2-8 [100, 120] -- │ └─Linear: 2-9 [100, 84] 10,164 │ └─ReLU: 2-10 [100, 84] -- ├─Sequential: 1-2 [100, 10] -- │ └─Linear: 2-11 [100, 120] (recursive) │ └─ReLU: 2-12 [100, 120] -- │ └─Linear: 2-13 [100, 84] (recursive) │ └─ReLU: 2-14 [100, 84] -- │ └─Linear: 2-15 [100, 10] 850 │ └─Softmax: 2-16 [100, 10] -- ========================================================================================== Total params: 61,706 Trainable params: 61,706 Non-trainable params: 0 Total mult-adds (M): 48.13 ========================================================================================== Input size (MB): 0.41 Forward/backward pass size (MB): 5.21 Params size (MB): 0.25 Estimated Total Size (MB): 5.87 =====
…
