…
bels . note that our neural network architecture is now a class. To start using the model, we need to instantiate it into an object, . model = LeNet5(n_channels=1) . To further understand the architecture of LeNet5, we use torchinfo, which further shows the number of parameters in the network. . summary(model, input_size=(100, 1, 32, 32)) . ========================================================================================== Layer (type:depth-idx) Output Shape Param # ========================================================================================== LeNet5 -- -- ├─Sequential: 1-1 [100, 16, 5, 5] -- │ └─Conv2d: 2-1 [100, 6, 28, 28] 156 │ └─ReLU: 2-2 [100, 6, 28, 28] -- │ └─MaxPool2d: 2-3 [100, 6, 14, 14] -- │ └─Conv2d: 2-4 [100, 16, 10, 10] 2,416 │ └─ReLU: 2-5 [100, 16, 10, 10] -- │ └─MaxPool2d: 2-6 [100, 16, 5, 5] -- ├─Sequential: 1 -- -- │ └─Linear: 2-7 [100, 120] 48,120 │ └─ReLU: 2-8 [100, 120] -- │ └─Linear: 2-9 [100, 84] 10,164 │ └─ReLU: 2-10 [100, 84] -- ├─Sequential: 1-2 [100, 10] -- │ └─Linear: 2-11 [100, 120] (recursive) │ └─ReLU: 2-12 [100, 120] -- │ └─Linear: 2-13 [100, 84] (recursive) │ └─ReLU: 2-14 [100, 84] -- │ └─Linear: 2-15 [100, 10] 850 │ └─Softmax: 2-16 [100, 10] -- ========================================================================================== Total params: 61,706 Trainable params: 61,706 Non-trainable params: 0 Total mult-adds (M): 48.13 ========================================================================================== Input size (MB): 0.41 Forward/backward pass size (MB): 5.21 Params size (MB): 0.25 Estimated Total Size (MB): 5.87 =====
…
tivation=&#39;relu&#39;, kernel_regularizer=tf.keras.regularizers.l2(1e-3))(y) y = tf.keras.layers.Dense(units=n_classes, activation=&#39;softmax&#39;)(y) return tf.keras.models.Model(x, y) . Treinamento do modelo n&#227;o-regularizado . model1 = network1() model1.summary() . Model: &#34;functional_3&#34; _________________________________________________________________ Layer (type) Output Shape Param # ================================================================= input_2 (InputLayer) [(None, 28, 28, 1)] 0 _________________________________________________________________ conv2d_1 (Conv2D) (None, 28, 28, 36) 360 _________________________________________________________________ max_pooling2d_1 (MaxPooling2 (None, 14, 14, 36) 0 _________________________________________________________________ flatten_1 (Flatten) (None, 7056) 0 _________________________________________________________________ dense_2 (Dense) (None, 100) 705700 _________________________________________________________________ dense_3 (Dense) (None, 10) 1010 ================================================================= Total params: 707,070 Trainable params: 707,070 Non-trainable params: 0 _________________________________________________________________ . loss_obj = tf.keras.losses.CategoricalCrossentropy() optimizer_obj = tf.keras.optimizers.Adam(lr=0.01) model1.compile(loss=loss_obj, optimizer=optimizer_obj, metrics=[&#39;accuracy&#39;]) . his
…
et_ylim([0, 1.1]) _ = axes[1, 0].set_xticks([i for i in range(0, 10)]) axes[1, 1].bar(np.arange(10), tmp[-1][0, :]) axes[1, 1].set_ylim([0, 1.1]) _ = axes[1, 1].set_xticks([i for i in range(0, 10)]) . Treinamento do modelo regularizado . model2 = network2() model2.summary() . Model: &#34;functional_5&#34; _________________________________________________________________ Layer (type) Output Shape Param # ================================================================= input_2 (InputLayer) [(None, 28, 28, 1)] 0 _________________________________________________________________ conv2d_1 (Conv2D) (None, 28, 28, 36) 1800 _________________________________________________________________ max_pooling2d_1 (MaxPooling2 (None, 14, 14, 36) 0 _________________________________________________________________ flatten_1 (Flatten) (None, 7056) 0 _________________________________________________________________ dense_2 (Dense) (None, 100) 705700 _________________________________________________________________ dense_3 (Dense) (None, 10) 1010 ================================================================= Total params: 708,510 Trainable params: 708,510 Non-trainable params: 0 _________________________________________________________________ . loss_obj = tf.keras.losses.CategoricalCrossentropy() optimizer_obj = tf.keras.optimizers.Adam(lr=0.01) model2.compile(loss=loss_obj, optimizer=optimizer_obj, metrics=[&#39;accuracy&#39;]) . his
…
